CustomCNN_noDense_conv2D.tflite (tflite, 445320 bytes, 5 tensors)

tfl.pseudo_qconst1 i1 [2, 1, 64, 1]
000000 df 84 a8 c4 24 39 ae dd 1d 9b ce cd d7 2c 2a 48
       -33 -124 -88 -60 36 57 -82 -35 29 -101 -50 -51 -41 44 42 72
000010 c2 6e ff ea a6 92 66 ba 4f a8 85 0e b5 07 1c 5d
       -62 110 -1 -22 -90 -110 102 -70 79 -88 -123 14 -75 7 28 93
000020 f7 4b b9 cf df 1c b1 a5 3e 1a 99 a8 d6 24 7c f1
       -9 75 -71 -49 -33 28 -79 -91 62 26 -103 -88 -42 36 124 -15
000030 6f 4a 88 bd a3 1b 79 df 85 7f ca 88 d3 d3 bd e3
       111 74 -120 -67 -93 27 121 -33 -123 127 -54 -120 -45 -45 -67 -29
000040 d1 31 23 00 49 df 1d 74 73 c5 2c 71 06 89 73 d1
       -47 49 35 0 73 -33 29 116 115 -59 44 113 6 -119 115 -47
000050 68 70 73 9c 68 d4 17 a4 bf c8 f3 71 86 3a 5b f3
       104 112 115 -100 104 -44 23 -92 -65 -56 -13 113 -122 58 91 -13
000060 68 88 c9 93 3c 86 0f 07 c1 b2 98 71 77 60 50 c8
       104 -120 -55 -109 60 -122 15 7 -63 -78 -104 113 119 96 80 -56
000070 31 9f 0e c7 b6 44 59 c1 c6 7f cd 04 f9 89 3e b2
       49 -97 14 -57 -74 68 89 -63 -58 127 -51 4 -7 -119 62 -78

tfl.pseudo_qconst3 i1 [64, 1, 6400, 1]
000000 91 10 d1 e3 b2 59 0a c9 b9 b2 fe 51 29 4e c8 7b
       -111 16 -47 -29 -78 89 10 -55 -71 -78 -2 81 41 78 -56 123
000010 98 21 da 95 ca aa f0 39 c3 10 26 19 f0 ab d6 4d
       -104 33 -38 -107 -54 -86 -16 57 -61 16 38 25 -16 -85 -42 77
000020 34 8d cd fa 05 9e 7e 5a c7 15 c0 d1 6f 13 5b cf
       52 -115 -51 -6 5 -98 126 90 -57 21 -64 -47 111 19 91 -49
000030 1a 3f 3e a1 30 39 da 00 6a e9 15 f0 3b 4d 2c 66
       26 63 62 -95 48 57 -38 0 106 -23 21 -16 59 77 44 102
000040 c3 5a c5 bd 63 4c 31 2f 25 0a 67 a5 71 13 9f 7a
       -61 90 -59 -67 99 76 49 47 37 10 103 -91 113 19 -97 122
000050 64 1d a9 34 2b 56 40 cb 33 5e fd d0 3a 19 a4 9f
       100 29 -87 52 43 86 64 -53 51 94 -3 -48 58 25 -92 -97
000060 fd d9 fd e1 1f 0c af d8 07 ab 10 72 c7 ff a8 02
       -3 -39 -3 -31 31 12 -81 -40 7 -85 16 114 -57 -1 -88 2
000070 a0 1f b4 6b 65 ae 67 76 8e e1 16 b3 2d 64 19 9b
       -96 31 -76 107 101 -82 103 118 -114 -31 22 -77 45 100 25 -101
000080 f1 91 c3 52 25 99 9b 77 f7 63 c1 6c 9d d2 91 47
       -15 -111 -61 82 37 -103 -101 119 -9 99 -63 108 -99 -46 -111 71
000090 96 44 db b4 a5 e3 cd b3 25 64 7a 2f b9 90 bf ea
       -106 68 -37 -76 -91 -29 -51 -77 37 100 122 47 -71 -112 -65 -22
0000a0 51 4c f9 f6 bd 19 53 d1 8c bb 1e a1 72 d2 8c 18
       81 76 -7 -10 -67 25 83 -47 -116 -69 30 -95 114 -46 -116 24
0000b0 cc 94 72 78 64 b7 0d 67 36 11 14 6b 7a d0 cc cd
       -52 -108 114 120 100 -73 13 103 54 17 20 107 122 -48 -52 -51
0000c0 71 46 86 64 c5 ef 53 1e 8c 23 50 09 f1 f0 6d 0b
       113 70 -122 100 -59 -17 83 30 -116 35 80 9 -15 -16 109 11
0000d0 cf 19 e5 0f d2 13 df 44 02 b2 a8 2a bc 35 9a ae
       -49 25 -27 15 -46 19 -33 68 2 -78 -88 42 -68 53 -102 -82
0000e0 96 df 56 23 17 03 d9 98 0c de da e9 cd 98 3c a4
       -106 -33 86 35 23 3 -39 -104 12 -34 -38 -23 -51 -104 60 -92
0000f0 f5 64 10 69 52 71 24 e1 0e 15 20 5d 93 26 93 44
       -11 100 16 105 82 113 36 -31 14 21 32 93 -109 38 -109 68

tfl.pseudo_qconst5 i1 [64, 3, 3, 32]
000000 f2 5d 0f b5 67 53 31 78 e7 b3 7f c2 0e 5a b2 db
       -14 93 15 -75 103 83 49 120 -25 -77 127 -62 14 90 -78 -37
000010 5a 5f 3c 59 6c ea 71 07 d5 7e f7 93 1e 9b 2a bf
       90 95 60 89 108 -22 113 7 -43 126 -9 -109 30 -101 42 -65
000020 14 d0 18 97 a2 66 38 88 91 56 25 df cd 73 de c2
       20 -48 24 -105 -94 102 56 -120 -111 86 37 -33 -51 115 -34 -62
000030 84 76 4c ae 8d 49 ff 02 02 63 3b a9 be 85 56 af
       -124 118 76 -82 -115 73 -1 2 2 99 59 -87 -66 -123 86 -81
000040 c8 02 7d a3 4c 63 a2 e2 ef c3 4e 17 ec b5 b2 a1
       -56 2 125 -93 76 99 -94 -30 -17 -61 78 23 -20 -75 -78 -95
000050 b1 7d d4 08 10 29 8f 75 f4 75 b6 ff 62 9b ce d1
       -79 125 -44 8 16 41 -113 117 -12 117 -74 -1 98 -101 -50 -47
000060 95 ea 19 c7 e1 bf c6 bb 30 cf df 4f 77 85 e1 3b
       -107 -22 25 -57 -31 -65 -58 -69 48 -49 -33 79 119 -123 -31 59
000070 b6 9a 81 e1 1e 5e 02 d0 90 49 92 d9 28 de c5 ac
       -74 -102 -127 -31 30 94 2 -48 -112 73 -110 -39 40 -34 -59 -84
000080 a0 d5 8e ef 49 cc f0 28 e0 cb 5f 01 0f 97 ac ca
       -96 -43 -114 -17 73 -52 -16 40 -32 -53 95 1 15 -105 -84 -54
000090 6b 59 4b c8 a1 8f 46 5e 08 46 7c 08 fd 1f ea 23
       107 89 75 -56 -95 -113 70 94 8 70 124 8 -3 31 -22 35
0000a0 dd d2 39 44 6f 2c 0a f2 ee 09 10 6c e3 2c f9 f5
       -35 -46 57 68 111 44 10 -14 -18 9 16 108 -29 44 -7 -11
0000b0 f7 59 65 2d 33 f3 37 4a d2 89 b9 7d 0e 1c e5 3a
       -9 89 101 45 51 -13 55 74 -46 -119 -71 125 14 28 -27 58
0000c0 f1 63 2b 23 7a 04 0e 4e bd 3e 7f 06 56 b8 99 bb
       -15 99 43 35 122 4 14 78 -67 62 127 6 86 -72 -103 -69
0000d0 a1 3d e8 33 03 90 ec 75 5a a4 0c ea 6d ba d5 cf
       -95 61 -24 51 3 -112 -20 117 90 -92 12 -22 109 -70 -43 -49
0000e0 e8 9a 54 ed d3 5c 58 ab 5f 8a 9d aa af 4d d2 21
       -24 -102 84 -19 -45 92 88 -85 95 -118 -99 -86 -81 77 -46 33
0000f0 3c 51 24 b7 ed 4a b1 5e c4 34 fe 53 f5 2a a8 17
       60 81 36 -73 -19 74 -79 94 -60 52 -2 83 -11 42 -88 23

tfl.pseudo_qconst7 i1 [32, 3, 3, 16]
000000 91 56 73 08 ca ec cd 7f 58 fd 31 16 83 42 b4 22
       -111 86 115 8 -54 -20 -51 127 88 -3 49 22 -125 66 -76 34
000010 e2 79 82 94 0c b3 a5 ce 90 9a c2 d4 ba 6f c2 87
       -30 121 -126 -108 12 -77 -91 -50 -112 -102 -62 -44 -70 111 -62 -121
000020 52 7e 24 df 4e 5f 73 5f 10 91 e0 88 56 ae a9 ad
       82 126 36 -33 78 95 115 95 16 -111 -32 -120 86 -82 -87 -83
000030 d1 9d 89 68 38 fd 97 74 7e db 7e 5f 0d 97 2b 73
       -47 -99 -119 104 56 -3 -105 116 126 -37 126 95 13 -105 43 115
000040 b3 6d 87 e9 5d a1 a3 e5 08 67 8f 19 dd b0 c1 5d
       -77 109 -121 -23 93 -95 -93 -27 8 103 -113 25 -35 -80 -63 93
000050 fb 8f 37 ff a8 b8 e1 8d 9f a6 f8 55 e6 ae c6 3e
       -5 -113 55 -1 -88 -72 -31 -115 -97 -90 -8 85 -26 -82 -58 62
000060 5f 9e 7c a2 d1 b5 f8 1d a1 38 ae 16 32 da 08 49
       95 -98 124 -94 -47 -75 -8 29 -95 56 -82 22 50 -38 8 73
000070 51 e3 82 4c 12 b5 02 25 0f b7 0b ee d5 27 37 c7
       81 -29 -126 76 18 -75 2 37 15 -73 11 -18 -43 39 55 -57
000080 5a 06 c4 31 73 b0 71 30 71 b3 b8 ee 48 1f 57 3d
       90 6 -60 49 115 -80 113 48 113 -77 -72 -18 72 31 87 61
000090 52 d1 ee fd 27 f6 ab c7 0a fa 02 cb e8 31 4b 87
       82 -47 -18 -3 39 -10 -85 -57 10 -6 2 -53 -24 49 75 -121
0000a0 45 48 a4 87 12 37 06 75 fe 85 16 e6 ac ab 0c 97
       69 72 -92 -121 18 55 6 117 -2 -123 22 -26 -84 -85 12 -105
0000b0 b2 b5 28 c6 a5 10 eb 5f c2 e9 ac 4d 9e 2b 87 b6
       -78 -75 40 -58 -91 16 -21 95 -62 -23 -84 77 -98 43 -121 -74
0000c0 9c 60 48 92 fd 65 d9 57 0c 7a d0 73 b1 70 23 fc
       -100 96 72 -110 -3 101 -39 87 12 122 -48 115 -79 112 35 -4
0000d0 22 2d dd c9 d9 b2 90 6c 0a 48 98 dd b0 43 6a 8e
       34 45 -35 -55 -39 -78 -112 108 10 72 -104 -35 -80 67 106 -114
0000e0 05 64 3f 8f 85 75 9d f6 ab ed 83 25 d8 e4 26 a9
       5 100 63 -113 -123 117 -99 -10 -85 -19 -125 37 -40 -28 38 -87
0000f0 d0 8d a3 d4 f9 0a b4 25 ee 7b 35 0f c5 f6 02 07
       -48 -115 -93 -44 -7 10 -76 37 -18 123 53 15 -59 -10 2 7

tfl.pseudo_qconst9 i1 [16, 3, 3, 1]
000000 c5 18 72 81 d4 eb 40 31 34 7f ab 0e fe 97 3d d2
       -59 24 114 -127 -44 -21 64 49 52 127 -85 14 -2 -105 61 -46
000010 26 5d b9 ad f1 04 7f 93 9a 0c 8a 54 91 22 19 bc
       38 93 -71 -83 -15 4 127 -109 -102 12 -118 84 -111 34 25 -68
000020 d8 e1 9b 81 d2 7f 1d 2e 44 e1 83 59 2f 2b 62 36
       -40 -31 -101 -127 -46 127 29 46 68 -31 -125 89 47 43 98 54
000030 38 eb e6 e3 5f 81 9f 81 91 6c 4f 21 51 69 b4 cd
       56 -21 -26 -29 95 -127 -97 -127 -111 108 79 33 81 105 -76 -51
000040 06 8e 81 3d 00 f4 f2 b6 00 d5 e4 07 c1 88 81 75
       6 -114 -127 61 0 -12 -14 -74 0 -43 -28 7 -63 -120 -127 117
000050 87 bf 67 49 1f 97 1e e3 81 22 81 a4 aa 4c 6e 41
       -121 -65 103 73 31 -105 30 -29 -127 34 -127 -92 -86 76 110 65
000060 51 b4 b2 50 7f 0c 06 8a eb 48 56 56 72 d8 7f 20
       81 -76 -78 80 127 12 6 -118 -21 72 86 86 114 -40 127 32
000070 2c ba 46 94 dd 0e 0f e6 b7 10 7f 46 f1 04 e4 b3
       44 -70 70 -108 -35 14 15 -26 -73 16 127 70 -15 4 -28 -77
000080 66 77 1a a4 16 8a 81 31 41 2e 7f 1b 88 79 9b 1f
       102 119 26 -92 22 -118 -127 49 65 46 127 27 -120 121 -101 31
