mnist_custom_cnn_quant.tflite (tflite, 25312 bytes, 5 tensors)

tfl.pseudo_qconst1 i1 [2, 1, 32, 1]
-123 -49 121 -90 -60 90 -50 13
29 111 -97 -70 -26 -69 77 57
-77 70 -93 -61 -49 20 94 126
-94 82 56 80 127 36 68 35
-28 52 27 47 -124 -57 66 -103
-28 65 22 91 -51 -45 -70 -98
102 31 50 127 69 -36 -30 -39
93 -73 101 -11 -120 -105 18 -64
00000000: 85cf 79a6 c45a ce0d 1d6f 9fba e6bb 4d39
00000010: b346 a3c3 cf14 5e7e a252 3850 7f24 4423
00000020: e434 1b2f 84c7 4299 e441 165b cdd3 ba9e
00000030: 661f 327f 45dc e2d9 5db7 65f5 8897 12c0

tfl.pseudo_qconst3 i1 [32, 1, 288, 1]
95 57 -42 53 38 -16 8 40
38 12 8 3 -11 38 -11 56
33 39 64 -22 -12 -15 13 60
72 -16 -5 28 -23 6 49 -11
-40 11 35 12 31 18 26 78
9 -40 33 81 -43 33 19 55
-4 46 -3 33 -80 -5 -36 43
80 19 5 -6 -2 69 -18 8
62 -8 49 -44 -75 45 -13 12
17 52 8 12 43 -51 81 -52
-12 4 -10 35 16 60 62 -58
-54 22 41 -28 29 -8 49 29
-13 -13 -44 56 22 51 9 35
22 -41 46 -37 -32 68 50 68
25 46 54 -32 39 -62 -20 69
30 -54 -25 -9 25 33 -69 -44
-60 66 75 32 35 83 -19 34
-92 -65 24 38 -8 2 72 30
15 89 -55 -21 -31 34 8 36
81 64 -2 11 23 -43 43 65
35 18 -11 -57 -55 -75 -16 -57
81 37 -80 39 61 -51 -41 -57
-5 -72 55 59 6 36 65 -33
-64 44 55 -57 12 -15 74 28
-63 -66 41 72 45 57 3 76
49 -81 51 -13 -65 50 66 13
11 26 -14 -45 102 -43 -47 37
-1 44 -31 2 13 6 -102 -33
9 109 57 -44 69 48 21 -75
-56 59 59 42 51 -29 -43 23
12 97 -77 8 -59 32 43 85
37 81 7 -47 1 -70 127 35
00000000: 5f39 d635 26f0 0828 260c 0803 f526 f538
00000010: 2127 40ea f4f1 0d3c 48f0 fb1c e906 31f5
00000020: d80b 230c 1f12 1a4e 09d8 2151 d521 1337
00000030: fc2e fd21 b0fb dc2b 5013 05fa fe45 ee08
00000040: 3ef8 31d4 b52d f30c 1134 080c 2bcd 51cc
00000050: f404 f623 103c 3ec6 ca16 29e4 1df8 311d
00000060: f3f3 d438 1633 0923 16d7 2edb e044 3244
00000070: 192e 36e0 27c2 ec45 1eca e7f7 1921 bbd4
00000080: c442 4b20 2353 ed22 a4bf 1826 f802 481e
00000090: 0f59 c9eb e122 0824 5140 fe0b 17d5 2b41
000000a0: 2312 f5c7 c9b5 f0c7 5125 b027 3dcd d7c7
000000b0: fbb8 373b 0624 41df c02c 37c7 0cf1 4a1c
000000c0: c1be 2948 2d39 034c 31af 33f3 bf32 420d
000000d0: 0b1a f2d3 66d5 d125 ff2c e102 0d06 9adf
000000e0: 096d 39d4 4530 15b5 c83b 3b2a 33e3 d517
000000f0: 0c61 b308 c520 2b55 2551 07d1 01ba 7f23

tfl.pseudo_qconst5 i1 [32, 3, 3, 16]
7 11 98 -35 25 92 68 18
-46 -10 49 57 47 40 79 -20
111 93 12 14 -12 35 45 3
51 -31 29 -1 -85 52 48 -56
-43 68 32 59 62 -63 -67 -12
113 45 -49 -22 -75 5 62 -127
-28 44 93 -35 -66 48 71 41
63 -30 92 -58 100 59 11 -1
-46 89 -71 111 110 25 -9 -59
-70 22 13 -30 -2 109 61 -105
-1 3 65 5 -4 -37 21 -8
-11 32 -20 -24 34 -69 48 -63
81 31 -27 46 28 -7 -40 -6
-22 -65 62 -60 33 50 -20 -33
-32 19 -64 44 -32 -77 -41 -35
-64 81 45 -111 -77 65 -21 -29
-37 66 12 39 -46 -37 11 79
61 -44 49 101 47 27 111 -108
-29 -17 -45 -5 57 -22 37 -15
-43 -24 -42 48 -67 -43 -12 -34
54 73 -15 -78 12 10 86 61
46 41 67 100 16 -16 -50 -53
37 -43 -90 114 51 22 -73 -8
-8 36 62 -84 -78 78 -79 -11
80 -30 -70 23 -44 -106 -2 -82
77 -17 -41 -9 -43 -95 -7 26
20 -30 34 -127 -33 83 85 49
17 3 32 13 51 90 96 61
63 -8 20 92 -9 34 13 -69
-43 38 46 -92 -103 -7 -79 -31
98 24 -59 -21 18 -27 -23 -70
75 -89 -53 8 -71 -28 44 -46
00000000: 070b 62dd 195c 4412 d2f6 3139 2f28 4fec
00000010: 6f5d 0c0e f423 2d03 33e1 1dff ab34 30c8
00000020: d544 203b 3ec1 bdf4 712d cfea b505 3e81
00000030: e42c 5ddd be30 4729 3fe2 5cc6 643b 0bff
00000040: d259 b96f 6e19 f7c5 ba16 0de2 fe6d 3d97
00000050: ff03 4105 fcdb 15f8 f520 ece8 22bb 30c1
00000060: 511f e52e 1cf9 d8fa eabf 3ec4 2132 ecdf
00000070: e013 c02c e0b3 d7dd c051 2d91 b341 ebe3
00000080: db42 0c27 d2db 0b4f 3dd4 3165 2f1b 6f94
00000090: e3ef d3fb 39ea 25f1 d5e8 d630 bdd5 f4de
000000a0: 3649 f1b2 0c0a 563d 2e29 4364 10f0 cecb
000000b0: 25d5 a672 3316 b7f8 f824 3eac b24e b1f5
000000c0: 50e2 ba17 d496 feae 4def d7f7 d5a1 f91a
000000d0: 14e2 2281 df53 5531 1103 200d 335a 603d
000000e0: 3ff8 145c f722 0dbb d526 2ea4 99f9 b1e1
000000f0: 6218 c5eb 12e5 e9ba 4ba7 cb08 b9e4 2cd2

tfl.pseudo_qconst7 i1 [16, 3, 3, 8]
-48 63 21 10 60 69 35 -13
57 -82 20 -22 104 -22 -94 -18
3 41 78 -17 -16 99 27 52
5 -12 62 60 59 -5 35 45
95 -41 -37 10 127 41 -36 1
54 -30 75 -15 43 26 -47 43
79 87 -67 51 93 10 90 103
29 101 -38 13 107 64 57 -40
31 -58 -72 105 72 -91 25 74
-80 -54 62 -46 67 -22 45 54
126 -11 84 -45 -14 -63 -15 104
57 62 83 91 18 60 122 -4
-89 33 23 109 -93 -53 32 64
89 -50 -103 3 -30 54 -35 -89
67 -12 4 -61 -68 80 54 32
9 -5 -95 -41 -2 -64 15 121
-12 -90 -114 83 -49 -105 127 117
66 -70 -95 48 -5 11 15 -63
3 -34 -21 113 -96 -97 25 11
7 55 71 -89 -51 -32 100 22
15 -34 -81 50 18 37 17 44
-104 -72 -6 -84 -4 -74 -41 -72
32 -3 -71 -37 -108 -23 -26 49
-31 50 40 -105 -4 -56 70 -20
-72 21 -38 -22 -47 -3 -98 -70
-14 -3 -7 16 -127 0 98 -36
45 -19 -6 -53 -52 80 107 73
-56 46 -35 -19 127 -18 -39 31
-13 -16 -8 39 46 31 16 -19
71 21 -48 20 -71 -5 89 -11
-1 9 -19 -20 11 65 -14 43
35 -29 -21 58 11 20 -7 7
00000000: d03f 150a 3c45 23f3 39ae 14ea 68ea a2ee
00000010: 0329 4eef f063 1b34 05f4 3e3c 3bfb 232d
00000020: 5fd7 db0a 7f29 dc01 36e2 4bf1 2b1a d12b
00000030: 4f57 bd33 5d0a 5a67 1d65 da0d 6b40 39d8
00000040: 1fc6 b869 48a5 194a b0ca 3ed2 43ea 2d36
00000050: 7ef5 54d3 f2c1 f168 393e 535b 123c 7afc
00000060: a721 176d a3cb 2040 59ce 9903 e236 dda7
00000070: 43f4 04c3 bc50 3620 09fb a1d7 fec0 0f79
00000080: f4a6 8e53 cf97 7f75 42ba a130 fb0b 0fc1
00000090: 03de eb71 a09f 190b 0737 47a7 cde0 6416
000000a0: 0fde af32 1225 112c 98b8 faac fcb6 d7b8
000000b0: 20fd b9db 94e9 e631 e132 2897 fcc8 46ec
000000c0: b815 daea d1fd 9eba f2fd f910 8100 62dc
000000d0: 2ded facb cc50 6b49 c82e dded 7fee d91f
000000e0: f3f0 f827 2e1f 10ed 4715 d014 b9fb 59f5
000000f0: ff09 edec 0b41 f22b 23e3 eb3a 0b14 f907

tfl.pseudo_qconst9 i1 [8, 3, 3, 1]
-75 -42 120 -35 -99 127 -16 90
-10 -127 -44 33 65 104 42 96
-71 57 -124 -127 0 -75 -55 -91
-110 -14 -58 -79 -91 126 104 31
-9 94 -57 -127 54 -5 -91 83
2 -127 89 77 -61 -65 -102 40
-57 87 -9 -87 127 -20 -23 -20
103 -56 85 -52 43 33 127 114
-32 9 -23 127 76 -46 114 42
00000000: b5d6 78dd 9d7f f05a f681 d421 4168 2a60
00000010: b939 8481 00b5 c9a5 92f2 c6b1 a57e 681f
00000020: f75e c781 36fb a553 0281 594d c3bf 9a28
00000030: c757 f7a9 7fec e9ec 67c8 55cc 2b21 7f72
00000040: e009 e97f 4cd2 722a
