tflite_models/tflite_models_0907/CustomCNN_quant_int8.tflite (tflite, 442816 bytes, 5 tensors)

tfl.pseudo_qconst1 i1 [2, 64]
-16 -65 65 60 19 61 -21 -52
109 -21 1 -96 -14 -19 -77 -39
-37 -58 76 -54 -16 -62 3 36
56 -34 -17 -57 -2 -37 7 28
-14 -52 -37 15 35 9 -8 -77
86 49 98 5 127 68 83 -84
-5 57 -79 16 -23 62 -11 -84
-62 -22 -59 3 -38 -14 58 38
-39 101 -114 32 81 -29 -53 2
-54 -103 69 45 -50 -62 41 83
-32 2 -127 9 57 17 92 33
-53 74 53 -2 55 39 -39 34
23 7 59 -5 -62 68 -15 0
-100 7 -75 79 -84 14 -104 -19
41 44 -11 -75 51 -17 59 -37
45 -20 -67 -80 -59 63 38 38
00000000: f0bf 413c 133d ebcc 6deb 01a0 f2ed b3d9
00000010: dbc6 4cca f0c2 0324 38de efc7 fedb 071c
00000020: f2cc db0f 2309 f8b3 5631 6205 7f44 53ac
00000030: fb39 b110 e93e f5ac c2ea c503 daf2 3a26
00000040: d965 8e20 51e3 cb02 ca99 452d cec2 2953
00000050: e002 8109 3911 5c21 cb4a 35fe 3727 d922
00000060: 1707 3bfb c244 f100 9c07 b54f ac0e 98ed
00000070: 292c f5b5 33ef 3bdb 2dec bdb0 c53f 2626

tfl.pseudo_qconst3 i1 [64, 6400]
60 -14 71 -93 4 -94 36 -71
45 -98 -25 63 -22 -9 -31 -16
-16 80 -9 83 -52 -5 9 -63
19 -33 -6 22 42 -9 -82 27
84 -107 12 54 -117 -106 -12 -70
-36 -34 35 34 -101 40 22 -103
-32 -15 64 20 -12 58 5 83
20 83 -105 -50 68 68 85 -12
-103 9 -103 -7 -100 60 -100 -96
-19 -51 -68 -113 -75 -58 -79 -91
-83 -119 -101 -81 10 -81 -103 -45
-96 47 -1 -15 59 -87 -17 -36
22 -41 1 -82 -18 -92 30 73
82 -60 -42 0 -14 -23 -8 20
-38 43 -87 -81 -102 84 -43 -14
71 66 -5 34 -53 32 60 -70
-110 7 -48 -72 20 -43 77 -58
-49 -54 30 -115 -119 56 22 -15
-45 -89 31 -34 -53 -106 -80 53
-60 -31 70 -99 22 18 -29 -98
19 -10 -34 -59 77 -28 -66 -62
56 71 29 -46 -83 -49 -39 75
-120 -125 -2 -41 -75 -67 -78 -12
26 35 58 50 92 -104 -28 69
5 -100 -121 19 71 -39 49 -33
31 9 65 -78 -78 -61 44 21
1 -59 -114 -35 67 -67 71 -112
-28 -9 9 9 85 69 -26 -5
-44 -108 -73 80 44 38 -49 -6
34 -76 23 -16 78 66 10 -100
39 4 -11 -124 -88 -88 -38 70
52 -65 -84 -51 -94 26 -127 19
00000000: 3cf2 47a3 04a2 24b9 2d9e e73f eaf7 e1f0
00000010: f050 f753 ccfb 09c1 13df fa16 2af7 ae1b
00000020: 5495 0c36 8b96 f4ba dcde 2322 9b28 1699
00000030: e0f1 4014 f43a 0553 1453 97ce 4444 55f4
00000040: 9909 99f9 9c3c 9ca0 edcd bc8f b5c6 b1a5
00000050: ad89 9baf 0aaf 99d3 a02f fff1 3ba9 efdc
00000060: 16d7 01ae eea4 1e49 52c4 d600 f2e9 f814
00000070: da2b a9af 9a54 d5f2 4742 fb22 cb20 3cba
00000080: 9207 d0b8 14d5 4dc6 cfca 1e8d 8938 16f1
00000090: d3a7 1fde cb96 b035 c4e1 469d 1612 e39e
000000a0: 13f6 dec5 4de4 bec2 3847 1dd2 adcf d94b
000000b0: 8883 fed7 b5bd b2f4 1a23 3a32 5c98 e445
000000c0: 059c 8713 47d9 31df 1f09 41b2 b2c3 2c15
000000d0: 01c5 8edd 43bd 4790 e4f7 0909 5545 e6fb
000000e0: d494 b750 2c26 cffa 22b4 17f0 4e42 0a9c
000000f0: 2704 f584 a8a8 da46 34bf accd a21a 8113

tfl.pseudo_qconst5 i1 [64, 3, 3, 32]
-93 -9 -54 -41 -57 16 41 -62
-107 -80 3 -57 -2 -49 -66 19
-67 -22 -84 -43 -12 33 -97 -26
-92 -41 -81 20 -51 -64 -50 -13
-86 -92 -8 4 -8 -82 -20 -63
-50 53 21 -71 42 -10 -49 -10
25 -24 95 18 -40 58 -123 -56
21 -3 32 71 -10 -33 -19 -105
24 -22 23 -29 -85 -63 21 120
-95 48 20 -72 37 -45 -70 23
-77 31 8 -74 75 -6 -75 122
75 114 19 56 59 -26 3 -42
-62 -99 -65 -14 -5 25 -49 -25
-78 -29 -9 -73 -19 -7 -50 -54
-39 -56 -14 -74 -16 -51 -78 7
-27 -7 -98 126 4 -13 -62 15
-68 7 -43 7 -61 -97 83 -39
14 1 -68 21 -71 -1 -35 46
38 48 -16 11 5 30 -38 45
45 73 -23 88 -1 -42 14 -24
26 -25 -50 35 -48 -9 10 -38
-94 26 -7 19 15 -31 -47 -46
-67 -65 22 -57 -73 19 36 25
96 75 35 26 51 -36 -14 -53
-85 -96 -10 23 -44 -44 -35 26
-39 5 4 -16 13 -34 4 46
-42 -26 27 -13 -25 31 -127 65
3 -14 -18 59 -69 -39 4 -62
-101 -60 -66 -47 -29 13 40 30
-34 38 -48 -26 18 12 7 1
-9 40 58 -8 1 57 -54 42
19 -34 -66 75 34 -22 -61 -24
00000000: a3f7 cad7 c710 29c2 95b0 03c7 fecf be13
00000010: bdea acd5 f421 9fe6 a4d7 af14 cdc0 cef3
00000020: aaa4 f804 f8ae ecc1 ce35 15b9 2af6 cff6
00000030: 19e8 5f12 d83a 85c8 15fd 2047 f6df ed97
00000040: 18ea 17e3 abc1 1578 a130 14b8 25d3 ba17
00000050: b31f 08b6 4bfa b57a 4b72 1338 3be6 03d6
00000060: c29d bff2 fb19 cfe7 b2e3 f7b7 edf9 ceca
00000070: d9c8 f2b6 f0cd b207 e5f9 9e7e 04f3 c20f
00000080: bc07 d507 c39f 53d9 0e01 bc15 b9ff dd2e
00000090: 2630 f00b 051e da2d 2d49 e958 ffd6 0ee8
000000a0: 1ae7 ce23 d0f7 0ada a21a f913 0fe1 d1d2
000000b0: bdbf 16c7 b713 2419 604b 231a 33dc f2cb
000000c0: aba0 f617 d4d4 dd1a d905 04f0 0dde 042e
000000d0: d6e6 1bf3 e71f 8141 03f2 ee3b bbd9 04c2
000000e0: 9bc4 bed1 e30d 281e de26 d0e6 120c 0701
000000f0: f728 3af8 0139 ca2a 13de be4b 22ea c3e8

tfl.pseudo_qconst7 i1 [32, 3, 3, 16]
16 -5 4 -127 -45 -83 -54 -10
-18 -38 -49 16 -27 -18 1 8
40 -10 -35 -87 -30 -57 -27 1
4 -3 -5 68 18 -49 -22 23
27 -10 -4 -92 15 -80 -30 13
-6 4 5 33 -7 -32 5 23
49 3 -22 -51 5 -71 -36 17
47 -16 -12 6 30 -56 -5 4
-10 0 -5 -50 10 -36 19 5
38 8 17 20 17 -6 -5 -17
11 -25 -24 -103 22 -38 -20 29
24 10 33 -18 26 -23 -11 -49
-6 -6 -3 -67 -25 -76 22 -7
27 -1 -23 36 12 -32 30 7
-29 -5 6 -70 -12 -38 17 16
-5 20 4 1 33 -24 10 0
-36 -4 -10 -70 1 -39 22 22
14 19 -29 31 -1 -22 30 -21
24 44 58 65 -100 -12 65 52
-1 26 4 37 57 -35 13 56
11 -12 94 8 -115 75 -8 53
30 18 -2 43 49 27 -15 39
3 40 77 98 -75 -15 127 16
30 27 62 -23 55 -4 -23 58
-64 28 -24 -51 -57 -73 -40 28
-28 -40 -64 18 -17 -31 -29 51
-15 51 18 -8 -50 -63 -101 -7
-55 44 -38 69 -41 -28 -80 25
38 52 61 9 -81 -53 -61 60
-39 50 13 59 -3 -59 -52 61
-56 -35 -56 10 -48 -52 -25 -23
-91 -18 -16 32 -73 18 -35 -20
00000000: 10fb 0481 d3ad caf6 eeda cf10 e5ee 0108
00000010: 28f6 dda9 e2c7 e501 04fd fb44 12cf ea17
00000020: 1bf6 fca4 0fb0 e20d fa04 0521 f9e0 0517
00000030: 3103 eacd 05b9 dc11 2ff0 f406 1ec8 fb04
00000040: f600 fbce 0adc 1305 2608 1114 11fa fbef
00000050: 0be7 e899 16da ec1d 180a 21ee 1ae9 f5cf
00000060: fafa fdbd e7b4 16f9 1bff e924 0ce0 1e07
00000070: e3fb 06ba f4da 1110 fb14 0401 21e8 0a00
00000080: dcfc f6ba 01d9 1616 0e13 e31f ffea 1eeb
00000090: 182c 3a41 9cf4 4134 ff1a 0425 39dd 0d38
000000a0: 0bf4 5e08 8d4b f835 1e12 fe2b 311b f127
000000b0: 0328 4d62 b5f1 7f10 1e1b 3ee9 37fc e93a
000000c0: c01c e8cd c7b7 d81c e4d8 c012 efe1 e333
000000d0: f133 12f8 cec1 9bf9 c92c da45 d7e4 b019
000000e0: 2634 3d09 afcb c33c d932 0d3b fdc5 cc3d
000000f0: c8dd c80a d0cc e7e9 a5ee f020 b712 ddec

tfl.pseudo_qconst9 i1 [16, 3, 3, 3]
-79 -53 -127 55 99 -4 57 -79
-48 -42 -53 -27 54 112 61 -38
72 73 -64 52 57 -68 2 -91
51 39 -29 57 -10 -59 101 57
-127 72 -70 -23 58 -69 52 23
-106 -98 -74 -17 24 -48 86 -61
-90 50 25 -122 24 123 70 32
-97 102 6 -127 89 27 -94 31
72 -103 23 -5 -2 -60 -14 4
7 33 -38 -60 58 -65 48 -17
5 24 33 -67 59 95 -127 -84
-25 -1 -9 60 -104 33 70 -91
-73 70 3 -41 75 10 -62 45
-32 37 -22 -34 7 104 66 20
91 118 -17 13 101 35 36 113
-12 15 69 19 9 -70 72 104
-127 -29 -90 -49 35 -51 24 -102
13 57 6 -12 8 -6 -22 32
-66 -26 91 -74 34 -3 7 15
-51 37 -62 19 29 65 -90 127
7 -115 44 76 -95 -63 59 17
-74 51 11 83 3 -78 71 42
-127 -39 -5 49 32 -32 20 64
-64 -40 -77 -39 95 -80 -4 -85
-78 1 86 106 127 102 -45 58
-65 38 -2 -38 6 54 -99 -16
-40 -110 -89 98 69 -68 88 -102
-63 19 88 92 108 -43 124 56
45 -63 -9 -127 18 56 66 26
-103 -2 -83 -76 -94 -42 -70 24
28 -37 -20 28 77 32 -5 104
22 -21 83 10 -51 44 -19 -122
00000000: b1cb 8137 63fc 39b1 d0d6 cbe5 3670 3dda
00000010: 4849 c034 39bc 02a5 3327 e339 f6c5 6539
00000020: 8148 bae9 3abb 3417 969e b6ef 18d0 56c3
00000030: a632 1986 187b 4620 9f66 0681 591b a21f
00000040: 4899 17fb fec4 f204 0721 dac4 3abf 30ef
00000050: 0518 21bd 3b5f 81ac e7ff f73c 9821 46a5
00000060: b746 03d7 4b0a c22d e025 eade 0768 4214
00000070: 5b76 ef0d 6523 2471 f40f 4513 09ba 4868
00000080: 81e3 a6cf 23cd 189a 0d39 06f4 08fa ea20
00000090: bee6 5bb6 22fd 070f cd25 c213 1d41 a67f
000000a0: 078d 2c4c a1c1 3b11 b633 0b53 03b2 472a
000000b0: 81d9 fb31 20e0 1440 c0d8 b3d9 5fb0 fcab
000000c0: b201 566a 7f66 d33a bf26 feda 0636 9df0
000000d0: d892 a762 45bc 589a c113 585c 6cd5 7c38
000000e0: 2dc1 f781 1238 421a 99fe adb4 a2d6 ba18
000000f0: 1cdb ec1c 4d20 fb68 16eb 530a cd2c ed86
