tflite_models/tflite_models_0907/SeparableCustomCNN_quant_int8.tflite (tflite, 425320 bytes, 8 tensors)

tfl.pseudo_qconst1 i1 [2, 64]
000000 dc d2 0a 67 fe e3 d6 e1 df 08 cc de f6 e2 ff 7f
       -36 -46 10 103 -2 -29 -42 -31 -33 8 -52 -34 -10 -30 -1 127
000010 2b 30 28 c1 16 0a c4 f5 6c 2e f4 fe c6 fb 0c 23
       43 48 40 -63 22 10 -60 -11 108 46 -12 -2 -58 -5 12 35
000020 08 04 c3 0b 18 bc dc 17 da c5 fb 76 31 ca f5 71
       8 4 -61 11 24 -68 -36 23 -38 -59 -5 118 49 -54 -11 113
000030 10 15 e7 1d e3 5d 12 e5 19 13 b5 da 2c 2b 12 20
       16 21 -25 29 -29 93 18 -27 25 19 -75 -38 44 43 18 32
000040 cd f9 49 85 42 c2 27 3c 13 cc 10 1c 56 3d 4e c3
       -51 -7 73 -123 66 -62 39 60 19 -52 16 28 86 61 78 -61
000050 37 09 eb 19 18 3b 1e db fb da ca 33 51 c8 d0 cf
       55 9 -21 25 24 59 30 -37 -5 -38 -54 51 81 -56 -48 -49
000060 41 f9 f6 2b 00 4a cf d7 45 3b da 81 e0 fc d5 d5
       65 -7 -10 43 0 74 -49 -41 69 59 -38 -127 -32 -4 -43 -43
000070 d1 4a 27 d2 d9 98 d3 c9 19 d7 27 0c f6 fc ed d2
       -47 74 39 -46 -39 -104 -45 -55 25 -41 39 12 -10 -4 -19 -46

tfl.pseudo_qconst3 i1 [64, 6400]
000000 f8 12 b9 cb 05 bb d6 d4 02 11 0e d6 3b eb be d9
       -8 18 -71 -53 5 -69 -42 -44 2 17 14 -42 59 -21 -66 -39
000010 be 20 c1 1e f6 06 f1 b7 c5 e2 07 28 d0 c4 dd 06
       -66 32 -63 30 -10 6 -15 -73 -59 -30 7 40 -48 -60 -35 6
000020 be fd 0c d7 1c fa 2d e9 ec dd c7 ed 2a 20 bd db
       -66 -3 12 -41 28 -6 45 -23 -20 -35 -57 -19 42 32 -67 -37
000030 27 c2 da 17 0a cd 07 f8 f6 e3 2d fd 2e 19 f5 dc
       39 -62 -38 23 10 -51 7 -8 -10 -29 45 -3 46 25 -11 -36
000040 01 e1 1e 27 dd d5 e3 e5 1a 04 aa 0e f4 cc db d7
       1 -31 30 39 -35 -43 -29 -27 26 4 -86 14 -12 -52 -37 -41
000050 e7 0a e5 22 08 ca de cb 0c de 18 f2 f4 e9 1b 31
       -25 10 -27 34 8 -54 -34 -53 12 -34 24 -14 -12 -23 27 49
000060 c5 16 10 d0 24 ce df 0d d3 c2 20 0e 16 35 0f c4
       -59 22 16 -48 36 -50 -33 13 -45 -62 32 14 22 53 15 -60
000070 d1 d0 1e b8 00 2c d2 2d 04 fd 2b bd 24 17 2f e0
       -47 -48 30 -72 0 44 -46 45 4 -3 43 -67 36 23 47 -32
000080 ba 21 17 ff c0 ec 27 d6 cb 34 c9 c7 c7 eb 27 03
       -70 33 23 -1 -64 -20 39 -42 -53 52 -55 -57 -57 -21 39 3
000090 0b d8 fe d2 2f 1d cf f3 26 40 24 fe fd b2 e8 25
       11 -40 -2 -46 47 29 -49 -13 38 64 36 -2 -3 -78 -24 37
0000a0 e2 c9 30 e6 fe f6 2b 31 12 00 17 e4 03 2d d9 d8
       -30 -55 48 -26 -2 -10 43 49 18 0 23 -28 3 45 -39 -40
0000b0 1c 21 37 04 e8 12 e9 18 2b 3b da 0c 0c be 27 f3
       28 33 55 4 -24 18 -23 24 43 59 -38 12 12 -66 39 -13
0000c0 21 07 04 1b ee 2f f4 db c8 d3 0d 00 22 e2 ed ef
       33 7 4 27 -18 47 -12 -37 -56 -45 13 0 34 -30 -19 -17
0000d0 f2 c4 1c 38 d6 01 ca e7 2d e3 16 df 2c f7 10 2b
       -14 -60 28 56 -42 1 -54 -25 45 -29 22 -33 44 -9 16 43
0000e0 c8 eb bd bf 0d c7 ec 21 c9 f3 d8 1c 01 01 c8 20
       -56 -21 -67 -65 13 -57 -20 33 -55 -13 -40 28 1 1 -56 32
0000f0 de e4 04 07 c4 e8 0e f0 05 e1 32 24 05 1d 1e ef
       -34 -28 4 7 -60 -24 14 -16 5 -31 50 36 5 29 30 -17

tfl.pseudo_qconst5 i1 [64, 1, 1, 32]
000000 b5 24 02 54 37 3f 2b 1f ec b7 3e de 03 e1 f9 be
       -75 36 2 84 55 63 43 31 -20 -73 62 -34 3 -31 -7 -66
000010 d4 81 ad d5 02 1b f4 56 f2 39 f3 d0 06 0c a3 e7
       -44 -127 -83 -43 2 27 -12 86 -14 57 -13 -48 6 12 -93 -25
000020 7f 14 ed 11 d3 09 e5 13 d9 0a 0d e0 21 22 cb f1
       127 20 -19 17 -45 9 -27 19 -39 10 13 -32 33 34 -53 -15
000030 f2 d5 ce e6 fc 0b 3f 34 19 4c 9a 25 e0 26 c2 01
       -14 -43 -50 -26 -4 11 63 52 25 76 -102 37 -32 38 -62 1
000040 c7 da 22 bd 02 5e 1b ad d3 53 03 dc f0 16 ec 28
       -57 -38 34 -67 2 94 27 -83 -45 83 3 -36 -16 22 -20 40
000050 da 07 e6 b9 7f 40 c5 00 91 07 24 0a 32 d8 10 a2
       -38 7 -26 -71 127 64 -59 0 -111 7 36 10 50 -40 16 -94
000060 04 e7 45 07 07 f2 d9 9b 1a 2a 32 81 21 a3 1e 46
       4 -25 69 7 7 -14 -39 -101 26 42 50 -127 33 -93 30 70
000070 0e 0d d0 40 09 07 c5 f0 fc fd 0f 52 37 22 1a 0b
       14 13 -48 64 9 7 -59 -16 -4 -3 15 82 55 34 26 11
000080 e6 df 4f 08 0e 0f c7 a4 16 11 bd 81 d2 0c 09 50
       -26 -33 79 8 14 15 -57 -92 22 17 -67 -127 -46 12 9 80
000090 06 1e 12 1d fb 09 cb 43 23 c2 07 06 17 e6 2b 20
       6 30 18 29 -5 9 -53 67 35 -62 7 6 23 -26 43 32
0000a0 e2 de 36 59 fe e4 20 08 03 f3 47 02 dd 1e 02 da
       -30 -34 54 89 -2 -28 32 8 3 -13 71 2 -35 30 2 -38
0000b0 69 81 45 26 27 dd 2b fb 33 f4 63 df 03 9b f2 28
       105 -127 69 38 39 -35 43 -5 51 -12 99 -33 3 -101 -14 40
0000c0 4a fb ee a8 39 7f ed d7 26 38 aa 17 27 c8 1a 41
       74 -5 -18 -88 57 127 -19 -41 38 56 -86 23 39 -56 26 65
0000d0 ce 2a bb 2c e0 ea 21 f1 07 d3 16 16 ef cb 1e bb
       -50 42 -69 44 -32 -22 33 -15 7 -45 22 22 -17 -53 30 -69
0000e0 1a fa f4 ce dc 53 55 8e c0 31 eb b9 24 f8 26 ee
       26 -6 -12 -50 -36 83 85 -114 -64 49 -21 -71 36 -8 38 -18
0000f0 76 32 11 2e 14 1f 09 12 42 23 f7 68 eb 81 25 28
       118 50 17 46 20 31 9 18 66 35 -9 104 -21 -127 37 40

tfl.pseudo_qconst7 i1 [1, 3, 3, 32]
000000 c4 4e ab 44 6f 87 27 1a 64 53 14 4e 5e 2f 31 29
       -60 78 -85 68 111 -121 39 26 100 83 20 78 94 47 49 41
000010 3b be 7f 49 fe dc bc 0a 2b b4 e5 56 81 7b 37 2c
       59 -66 127 73 -2 -36 -68 10 43 -76 -27 86 -127 123 55 44
000020 18 54 10 7f f7 81 51 d8 50 4b 2b 40 88 02 1d 00
       24 84 16 127 -9 -127 81 -40 80 75 43 64 -120 2 29 0
000030 19 e3 44 ae db e1 81 c0 f9 89 ae 1a b7 7f 7f 6a
       25 -29 68 -82 -37 -31 -127 -64 -7 -119 -82 26 -73 127 127 106
000040 5f 25 6e 68 6d d5 69 14 30 7a 53 0f 5f a4 21 d9
       95 37 110 104 109 -43 105 20 48 122 83 15 95 -92 33 -39
000050 cc cf 0f 8d ee 21 d0 81 56 1a a7 75 ab 6a d4 7f
       -52 -49 15 -115 -18 33 -48 -127 86 26 -89 117 -85 106 -44 127
000060 81 03 81 04 d5 96 23 33 15 7f c0 6e 57 49 2d ea
       -127 3 -127 4 -43 -106 35 51 21 127 -64 110 87 73 45 -22
000070 03 a1 78 7f a1 30 d5 ad 25 87 12 b1 32 13 7c bf
       3 -95 120 127 -95 48 -43 -83 37 -121 18 -79 50 19 124 -65
000080 c9 7f 9e be 81 e4 7f 28 17 6c 31 42 b1 7f 6d 19
       -55 127 -98 -66 -127 -28 127 40 23 108 49 66 -79 127 109 25
000090 d6 69 44 74 95 c2 8a b7 0a 47 59 81 16 74 6a e0
       -42 105 68 116 -107 -62 -118 -73 10 71 89 -127 22 116 106 -32
0000a0 72 26 d4 e7 ca 8b 56 1b 43 d7 4f 38 2d 1f e4 81
       114 38 -44 -25 -54 -117 86 27 67 -41 79 56 45 31 -28 -127
0000b0 81 5d f3 b1 11 38 cb ba 02 05 d5 8a 35 0d 88 55
       -127 93 -13 -79 17 56 -53 -70 2 5 -43 -118 53 13 -120 85
0000c0 95 3f ad e1 07 1f c0 63 5e 6c 81 78 0b 69 55 06
       -107 63 -83 -31 7 31 -64 99 94 108 -127 120 11 105 85 6
0000d0 50 8c 22 08 f5 30 2a ee f9 a2 3a f4 f7 46 b5 e1
       80 -116 34 8 -11 48 42 -18 -7 -94 58 -12 -9 70 -75 -31
0000e0 29 46 e7 be bd 20 d0 7f 52 2b b4 7f 34 2e 30 f6
       41 70 -25 -66 -67 32 -48 127 82 43 -76 127 52 46 48 -10
0000f0 41 64 5b 6f 16 50 b9 22 5b 81 7f 9b 1a e7 b7 1a
       65 100 91 111 22 80 -71 34 91 -127 127 -101 26 -25 -73 26

tfl.pseudo_qconst9 i1 [32, 1, 1, 16]
000000 fd ee f9 33 43 15 c1 d2 1c 08 e4 43 95 7f 4e e9
       -3 -18 -7 51 67 21 -63 -46 28 8 -28 67 -107 127 78 -23
000010 fc 23 0a c2 93 b9 b8 c5 d8 d6 b7 78 6d e9 5e 81
       -4 35 10 -62 -109 -71 -72 -59 -40 -42 -73 120 109 -23 94 -127
000020 ec 1e f1 5d 34 81 b4 1f 08 9d d0 4b fb 1f 30 40
       -20 30 -15 93 52 -127 -76 31 8 -99 -48 75 -5 31 48 64
000030 12 ff 2c 81 1e 1e 61 f3 ca e4 dd 32 2b 21 31 3f
       18 -1 44 -127 30 30 97 -13 -54 -28 -35 50 43 33 49 63
000040 bb bb 33 32 26 5f b5 e1 06 e7 59 4b 19 0f 46 7f
       -69 -69 51 50 38 95 -75 -31 6 -25 89 75 25 15 70 127
000050 ba e3 e5 f4 38 cc f1 ba d4 a4 26 d2 7f b3 c8 36
       -70 -29 -27 -12 56 -52 -15 -70 -44 -92 38 -46 127 -77 -56 54
000060 f1 49 81 bc ed d9 c7 e4 3b 76 dd e2 42 b9 5b f8
       -15 73 -127 -68 -19 -39 -57 -28 59 118 -35 -30 66 -71 91 -8
000070 ef a7 f5 24 55 66 78 0f 0b c5 e6 bc 81 47 39 c2
       -17 -89 -11 36 85 102 120 15 11 -59 -26 -68 -127 71 57 -62
000080 3b d1 2a cf 35 f9 7f c8 c7 11 ff e4 3a 20 c7 13
       59 -47 42 -49 53 -7 127 -56 -57 17 -1 -28 58 32 -57 19
000090 20 c8 15 0e c3 be cc 01 7f 16 cb 1e 16 22 33 54
       32 -56 21 14 -61 -66 -52 1 127 22 -53 30 22 34 51 84
0000a0 bd 0a 31 c8 14 e2 44 e0 ed 02 21 4a 47 7f 0b 3f
       -67 10 49 -56 20 -30 68 -32 -19 2 33 74 71 127 11 63
0000b0 a8 f9 e9 f1 d7 81 cc 4f f2 92 51 31 1e 0d 2c 16
       -88 -7 -23 -15 -41 -127 -52 79 -14 -110 81 49 30 13 44 22
0000c0 2e 08 e5 81 c5 95 c0 6b 2f 58 e3 4d 5a 7b be 89
       46 8 -27 -127 -59 -107 -64 107 47 88 -29 77 90 123 -66 -119
0000d0 ef 2a 81 ca bb 1b 0d 27 d0 2d 17 f3 52 1c 1b 47
       -17 42 -127 -54 -69 27 13 39 -48 45 23 -13 82 28 27 71
0000e0 46 0d 8c f6 ef e6 63 72 81 35 34 3e 33 cd 3b bb
       70 13 -116 -10 -17 -26 99 114 -127 53 52 62 51 -51 59 -69
0000f0 c6 ff 5b d2 31 1b ea c0 d2 dc 37 cc c8 5f 18 81
       -58 -1 91 -46 49 27 -22 -64 -46 -36 55 -52 -56 95 24 -127

tfl.pseudo_qconst11 i1 [1, 3, 3, 16]
000000 4d b8 49 46 44 30 81 81 bb 88 cf c9 07 85 f3 3e
       77 -72 73 70 68 48 -127 -127 -69 -120 -49 -55 7 -123 -13 62
000010 f7 f1 f5 29 b4 3e 8a 90 f6 a7 c1 81 30 08 53 56
       -9 -15 -11 41 -76 62 -118 -112 -10 -89 -63 -127 48 8 83 86
000020 54 28 8d 23 f8 59 21 86 a0 cc 81 8b b7 6d 7f 70
       84 40 -115 35 -8 89 33 -122 -96 -52 -127 -117 -73 109 127 112
000030 3b da 03 7f 7f 42 d7 57 24 90 eb d3 22 81 d4 69
       59 -38 3 127 127 66 -41 87 36 -112 -21 -45 34 -127 -44 105
000040 7f ed ec 74 42 68 d6 ce 08 db d5 8f 05 23 20 76
       127 -19 -20 116 66 104 -42 -50 8 -37 -43 -113 5 35 32 118
000050 6f d8 c5 4a 10 77 a2 c4 d0 39 ae cd 9a 6e 58 7f
       111 -40 -59 74 16 119 -94 -60 -48 57 -82 -51 -102 110 88 127
000060 1b 1f 7f 2d 50 03 ad 0e b2 81 1c bb ef e3 26 62
       27 31 127 45 80 3 -83 14 -78 -127 28 -69 -17 -29 38 98
000070 27 14 5b 3f 26 7f 0a 5e 81 c9 d2 0d d3 0e 04 57
       39 20 91 63 38 127 10 94 -127 -55 -46 13 -45 14 4 87
000080 7e 81 be 07 ef 70 2a be 38 fd ac 00 81 28 06 1f
       126 -127 -66 7 -17 112 42 -66 56 -3 -84 0 -127 40 6 31

tfl.pseudo_qconst13 i1 [16, 1, 1, 3]
000000 88 7f 59 81 28 56 15 7f a9 3b 1e 7f 81 58 ab c5
       -120 127 89 -127 40 86 21 127 -87 59 30 127 -127 88 -85 -59
000010 af 81 7f af e1 81 0b 0f 87 a2 7f 81 c7 e6 9c 7f
       -81 -127 127 -81 -31 -127 11 15 -121 -94 127 -127 -57 -26 -100 127
000020 68 81 50 da 2b 41 7f 5e f3 7f 7f d4 27 43 81 ca
       104 -127 80 -38 43 65 127 94 -13 127 127 -44 39 67 -127 -54

tfl.pseudo_qconst15 i1 [1, 3, 3, 3]
000000 98 72 aa 7f f9 30 59 50 0f 60 7f ea f5 2e 81 7a
       -104 114 -86 127 -7 48 89 80 15 96 127 -22 -11 46 -127 122
000010 d1 b5 35 f6 90 e5 31 29 90 e5 29
       -47 -75 53 -10 -112 -27 49 41 -112 -27 41
