tflite_models/tflite_models_0807/CustomCNN_quant_int8.tflite (tflite, 854200 bytes, 5 tensors)

tfl.pseudo_qconst1 i1 [2, 128]
000000 e2 c7 4d 7f 10 ce 1b 01 fc 2e 0d 40 6a 16 a2 c2
       -30 -57 77 127 16 -50 27 1 -4 46 13 64 106 22 -94 -62
000010 ba fb 4f da 0f fc 44 4c a4 47 f3 c5 d2 5a b9 8b
       -70 -5 79 -38 15 -4 68 76 -92 71 -13 -59 -46 90 -71 -117
000020 e2 fc d5 2f d2 2e 1c 18 26 e2 b2 d9 d8 f9 b9 0d
       -30 -4 -43 47 -46 46 28 24 38 -30 -78 -39 -40 -7 -71 13
000030 d1 22 ec fb 43 0f be 1f f4 dc e2 d1 c6 fa 08 12
       -47 34 -20 -5 67 15 -66 31 -12 -36 -30 -47 -58 -6 8 18
000040 29 08 ff 35 54 3d 44 f9 c6 00 ee 23 29 ff e1 22
       41 8 -1 53 84 61 68 -7 -58 0 -18 35 41 -1 -31 34
000050 6d 63 c5 43 cf 43 ba ef 09 ba f7 1b 34 14 f7 1c
       109 99 -59 67 -49 67 -70 -17 9 -70 -9 27 52 20 -9 28
000060 3a d1 e4 fa ca 22 e6 3a dd 13 2b 30 36 fa 3b d4
       58 -47 -28 -6 -54 34 -26 58 -35 19 43 48 54 -6 59 -44
000070 15 e6 c5 06 ca f3 d8 1e 0e 02 e7 40 f9 3a 1e 54
       21 -26 -59 6 -54 -13 -40 30 14 2 -25 64 -7 58 30 84
000080 0b 0a ee c8 16 3d cd f5 3e d3 df d4 e3 92 6c 1d
       11 10 -18 -56 22 61 -51 -11 62 -45 -33 -44 -29 -110 108 29
000090 f0 2e bd f1 fb 2d 17 84 4e 96 e0 ea cd f0 0b 62
       -16 46 -67 -15 -5 45 23 -124 78 -106 -32 -22 -51 -16 11 98
0000a0 39 3e 41 a6 00 08 b8 f0 fd 28 08 e9 1a f2 f9 fe
       57 62 65 -90 0 8 -72 -16 -3 40 8 -23 26 -14 -7 -2
0000b0 f3 a2 d1 39 f3 d7 6c 81 f1 1c 32 1f 21 dd f0 dc
       -13 -94 -47 57 -13 -41 108 -127 -15 28 50 31 33 -35 -16 -36
0000c0 09 be d5 e8 b1 98 c4 2f 1d 43 64 ca ee 03 f9 a4
       9 -66 -43 -24 -79 -104 -60 47 29 67 100 -54 -18 3 -7 -92
0000d0 e3 b4 06 9e 14 b3 53 20 f0 77 2f d9 aa 05 3c 26
       -29 -76 6 -98 20 -77 83 32 -16 119 47 -39 -86 5 60 38
0000e0 d4 2f 32 33 07 ce 18 99 12 0b 82 cc 8d 23 aa 11
       -44 47 50 51 7 -50 24 -103 18 11 -126 -52 -115 35 -86 17
0000f0 f5 3d 4a e2 3b 46 17 2d 4a df 21 86 f5 e9 d8 a7
       -11 61 74 -30 59 70 23 45 74 -33 33 -122 -11 -23 -40 -89

tfl.pseudo_qconst3 i1 [128, 6400]
000000 f5 e6 f0 0b f0 f6 c9 03 e9 ea f1 e6 01 02 18 fa
       -11 -26 -16 11 -16 -10 -55 3 -23 -22 -15 -26 1 2 24 -6
000010 fd e6 ee f9 e6 e5 db fa fc f4 12 02 df e9 12 f3
       -3 -26 -18 -7 -26 -27 -37 -6 -4 -12 18 2 -33 -23 18 -13
000020 ec d4 09 f8 06 f5 12 0a fd f7 fa dd f6 f8 03 fb
       -20 -44 9 -8 6 -11 18 10 -3 -9 -6 -35 -10 -8 3 -5
000030 e3 03 f2 1a ea d1 e6 10 d3 1c 1e fe 16 e4 22 f7
       -29 3 -14 26 -22 -47 -26 16 -45 28 30 -2 22 -28 34 -9
000040 0a 0d f9 07 f6 ff f1 f9 f1 e5 f3 e3 07 09 fd ef
       10 13 -7 7 -10 -1 -15 -7 -15 -27 -13 -29 7 9 -3 -17
000050 0b 0f 04 0b f8 f3 ad fb f9 f8 f9 f3 02 00 ff e7
       11 15 4 11 -8 -13 -83 -5 -7 -8 -7 -13 2 0 -1 -25
000060 f9 eb fe eb 0a ed 14 0e fc df 09 04 13 f2 14 fa
       -7 -21 -2 -21 10 -19 20 14 -4 -33 9 4 19 -14 20 -6
000070 fc 04 f6 29 ff eb f0 13 19 ff 14 01 09 23 08 05
       -4 4 -10 41 -1 -21 -16 19 25 -1 20 1 9 35 8 5
000080 19 11 f4 0e f2 12 08 f7 ee ef 28 e4 02 04 2d f8
       25 17 -12 14 -14 18 8 -9 -18 -17 40 -28 2 4 45 -8
000090 fc 0c 09 13 fe f7 eb f0 fe 0a 04 03 f0 ed e5 ef
       -4 12 9 19 -2 -9 -21 -16 -2 10 4 3 -16 -19 -27 -17
0000a0 01 0c f0 fb 06 eb 19 02 02 07 11 1f 11 fd 10 f9
       1 12 -16 -5 6 -21 25 2 2 7 17 31 17 -3 16 -7
0000b0 14 13 21 19 fc df 02 12 25 f8 fe 0b 10 04 09 f4
       20 19 33 25 -4 -33 2 18 37 -8 -2 11 16 4 9 -12
0000c0 17 eb 0f ea dc 1f da 04 f7 00 fd f7 19 02 16 01
       23 -21 15 -22 -36 31 -38 4 -9 0 -3 -9 25 2 22 1
0000d0 fb 03 0e fd e5 0f ef e0 fb 0a 01 ff f5 07 1c 0e
       -5 3 14 -3 -27 15 -17 -32 -5 10 1 -1 -11 7 28 14
0000e0 1c f4 f6 0b fd ef f5 23 e4 34 11 fe 03 01 00 03
       28 -12 -10 11 -3 -17 -11 35 -28 52 17 -2 3 1 0 3
0000f0 ff dc 0d 16 f4 e1 0e 12 f9 f2 04 0e f0 f5 f1 1a
       -1 -36 13 22 -12 -31 14 18 -7 -14 4 14 -16 -11 -15 26

tfl.pseudo_qconst5 i1 [64, 3, 3, 32]
000000 34 31 c3 fe 9e 00 24 13 ce c6 f3 ae 08 1c 1f 81
       52 49 -61 -2 -98 0 36 19 -50 -58 -13 -82 8 28 31 -127
000010 f0 1e d0 1b d4 04 f6 f5 32 f1 dd fb ce f5 04 d5
       -16 30 -48 27 -44 4 -10 -11 50 -15 -35 -5 -50 -11 4 -43
000020 f9 38 c8 1c a3 db cb 01 ed dd e4 e7 eb 03 da b1
       -7 56 -56 28 -93 -37 -53 1 -19 -35 -28 -25 -21 3 -38 -79
000030 37 d8 b6 da 15 28 ad 0e eb f6 cb 17 ee 10 da e5
       55 -40 -74 -38 21 40 -83 14 -21 -10 -53 23 -18 16 -38 -27
000040 b2 fc f3 08 ea 04 dc f6 eb e4 da 21 b1 d4 ac e1
       -78 -4 -13 8 -22 4 -36 -10 -21 -28 -38 33 -79 -44 -84 -31
000050 0e 98 f9 81 14 df c8 e1 0a cc e5 2b 09 16 aa 0d
       14 -104 -7 -127 20 -33 -56 -31 10 -52 -27 43 9 22 -86 13
000060 16 21 d5 e9 d2 f1 e3 e9 ee 1f d1 c9 1e 1f 19 e1
       22 33 -43 -23 -46 -15 -29 -23 -18 31 -47 -55 30 31 25 -31
000070 e0 0e f2 0e ea 22 8e 03 cf be f6 d3 07 dc 13 c9
       -32 14 -14 14 -22 34 -114 3 -49 -66 -10 -45 7 -36 19 -55
000080 0d 12 06 f8 cc f8 a6 ef d6 f7 ec d5 0b ec ff c7
       13 18 6 -8 -52 -8 -90 -17 -42 -9 -20 -43 11 -20 -1 -57
000090 cb df c9 e4 fe 19 a3 0b c9 00 e7 d9 df eb 11 f1
       -53 -33 -55 -28 -2 25 -93 11 -55 0 -25 -39 -33 -21 17 -15
0000a0 b2 39 f8 07 f7 e1 ed e9 05 2c 2f 19 11 d7 da f0
       -78 57 -8 7 -9 -31 -19 -23 5 44 47 25 17 -41 -38 -16
0000b0 f9 c7 0f e5 f1 f5 cc fb fe 19 e0 08 07 19 1b 08
       -7 -57 15 -27 -15 -11 -52 -5 -2 25 -32 8 7 25 27 8
0000c0 2e cf 0a 10 06 0e e9 f7 c1 0d ca f1 e8 d4 3c 00
       46 -49 10 16 6 14 -23 -9 -63 13 -54 -15 -24 -44 60 0
0000d0 03 fc 24 05 0b f5 ce dc fd c2 e1 ca e5 b2 0f bd
       3 -4 36 5 11 -11 -50 -36 -3 -62 -31 -54 -27 -78 15 -67
0000e0 e1 b0 3a 1c 03 1a dd ec d1 fd b9 cd eb 03 1f 10
       -31 -80 58 28 3 26 -35 -20 -47 -3 -71 -51 -21 3 31 16
0000f0 d2 ec c8 e4 23 fb af f5 18 de 15 e6 1e ec 0b f2
       -46 -20 -56 -28 35 -5 -81 -11 24 -34 21 -26 30 -20 11 -14

tfl.pseudo_qconst7 i1 [32, 3, 3, 16]
000000 f7 e1 21 08 81 c6 d6 07 fd e7 e8 23 0a 27 d1 e3
       -9 -31 33 8 -127 -58 -42 7 -3 -25 -24 35 10 39 -47 -29
000010 f1 e4 07 ea a5 ca fe 15 08 e1 28 0a f5 19 b5 0d
       -15 -28 7 -22 -91 -54 -2 21 8 -31 40 10 -11 25 -75 13
000020 c9 0c 1f d3 de bf 0b ef f1 da 74 21 e2 03 ef 0a
       -55 12 31 -45 -34 -65 11 -17 -15 -38 116 33 -30 3 -17 10
000030 c7 bb 18 08 f8 d8 b8 07 e0 cb dc 17 f7 fb e4 e0
       -57 -69 24 8 -8 -40 -72 7 -32 -53 -36 23 -9 -5 -28 -32
000040 c0 e5 28 d2 a9 f7 dd f5 f6 b4 b2 1b e4 08 a3 f7
       -64 -27 40 -46 -87 -9 -35 -11 -10 -76 -78 27 -28 8 -93 -9
000050 bb e1 28 ec cf c4 21 fa cf b4 12 13 07 12 df f8
       -69 -31 40 -20 -49 -60 33 -6 -49 -76 18 19 7 18 -33 -8
000060 c2 c5 15 f4 e9 d3 f2 ff d2 bf 0d 04 e1 03 ed e4
       -62 -59 21 -12 -23 -45 -14 -1 -46 -65 13 4 -31 3 -19 -28
000070 c8 cf 04 1f ec ea ec 00 c5 98 19 07 e8 f2 e2 e3
       -56 -49 4 31 -20 -22 -20 0 -59 -104 25 7 -24 -14 -30 -29
000080 b9 da 13 01 0a d1 f8 0c c1 9a 03 fe eb ea bf 18
       -71 -38 19 1 10 -47 -8 12 -63 -102 3 -2 -21 -22 -65 24
000090 d4 32 41 e9 dd d8 e9 3a 2b 08 f2 34 26 0d 6e cc
       -44 50 65 -23 -35 -40 -23 58 43 8 -14 52 38 13 110 -52
0000a0 ba de ff da 81 f3 01 17 23 12 13 14 d2 14 f3 0a
       -70 -34 -1 -38 -127 -13 1 23 35 18 19 20 -46 20 -13 10
0000b0 d5 dd ca 1e af 21 76 46 1f 1b b7 27 06 22 11 17
       -43 -35 -54 30 -81 33 118 70 31 27 -73 39 6 34 17 23
0000c0 e9 e9 f5 e5 c6 12 cc 29 cc e3 ed f7 be e1 ea 0a
       -23 -23 -11 -27 -58 18 -52 41 -52 -29 -19 -9 -66 -31 -22 10
0000d0 d7 e9 c9 d3 f8 30 06 13 c1 e2 e7 f7 9e ea df 25
       -41 -23 -55 -45 -8 48 6 19 -63 -30 -25 -9 -98 -22 -33 37
0000e0 cd e3 bc 24 f8 18 28 e5 cc 0b cd de d9 36 d4 1c
       -51 -29 -68 36 -8 24 40 -27 -52 11 -51 -34 -39 54 -44 28
0000f0 c8 e7 ea e3 f5 21 07 ce 11 0d ca 1d b6 02 88 fa
       -56 -25 -22 -29 -11 33 7 -50 17 13 -54 29 -74 2 -120 -6

tfl.pseudo_qconst9 i1 [16, 3, 3, 3]
000000 cd 8a 5d f1 a7 6c 30 d4 72 47 87 7f f6 87 e8 1c
       -51 -118 93 -15 -89 108 48 -44 114 71 -121 127 -10 -121 -24 28
000010 af db da a6 4f 5f 94 6e 19 cc 08 0c 4c 1a a8 c6
       -81 -37 -38 -90 79 95 -108 110 25 -52 8 12 76 26 -88 -58
000020 a7 b7 94 b9 4a 01 5f 21 29 b1 bc 2b 8e 1c 64 7f
       -89 -73 -108 -71 74 1 95 33 41 -79 -68 43 -114 28 100 127
000030 ce 08 dd 28 3b 06 14 9b c1 d2 94 1c 0c 9d b6 7f
       -50 8 -35 40 59 6 20 -101 -63 -46 -108 28 12 -99 -74 127
000040 c2 49 37 11 cf 7b fb e3 4d 1e fd 50 1a 1b 11 93
       -62 73 55 17 -49 123 -5 -29 77 30 -3 80 26 27 17 -109
000050 fb dd 11 09 fa 64 56 22 d3 cf a9 c6 81 c8 a3 d3
       -5 -35 17 9 -6 100 86 34 -45 -49 -87 -58 -127 -56 -93 -45
000060 7f 5d 12 34 50 0c ac d8 bc 0f d6 9f fe db 2e b7
       127 93 18 52 80 12 -84 -40 -68 15 -42 -97 -2 -37 46 -73
000070 d6 e0 81 c3 40 ae 0b 3a b2 14 06 9a da e3 ec 22
       -42 -32 -127 -61 64 -82 11 58 -78 20 6 -102 -38 -29 -20 34
000080 38 d5 10 56 f0 22 4b ad 0d 6a c8 c2 55 ce 10 14
       56 -43 16 86 -16 34 75 -83 13 106 -56 -62 85 -50 16 20
000090 2e 4e 19 12 7f f4 c2 73 0b a2 70 9e bc 6f 85 d8
       46 78 25 18 127 -12 -62 115 11 -94 112 -98 -68 111 -123 -40
0000a0 d8 e9 73 03 81 ff 1b e3 c3 32 fd 5c ec 9f e5 19
       -40 -23 115 3 -127 -1 27 -29 -61 50 -3 92 -20 -97 -27 25
0000b0 db c6 fd 48 29 e8 ef ca 1a 1f c6 ed 30 0f bb 12
       -37 -58 -3 72 41 -24 -17 -54 26 31 -58 -19 48 15 -69 18
0000c0 40 3f 9c 59 07 4d 3b 0e 5a d2 7f 20 18 54 03 25
       64 63 -100 89 7 77 59 14 90 -46 127 32 24 84 3 37
0000d0 fb 1e 1c 08 2f 2f f2 0a a0 30 dc 81 4e de 06 6f
       -5 30 28 8 47 47 -14 10 -96 48 -36 -127 78 -34 6 111
0000e0 9d 12 7a 91 f1 37 b8 b7 ed 01 04 1e bc 28 47 9e
       -99 18 122 -111 -15 55 -72 -73 -19 1 4 30 -68 40 71 -98
0000f0 62 f2 c0 b1 5b f4 ac 47 ce 02 62 ad 08 13 e3 25
       98 -14 -64 -79 91 -12 -84 71 -50 2 98 -83 8 19 -29 37
