tflite_models/tflite_models_1607/CustomCNN_noDense_conv2D_quant_int8.tflite (tflite, 426200 bytes, 5 tensors)

tfl.pseudo_qconst1 i1 [2, 1, 32, 1]
00000000: c91b d8c7 c5d5 d9e5 d120 0115 5908 e2df
00000010: b1a8 b7ef 17f3 19ce d6db 1c7f d30a e815
00000020: 66f8 1959 481c 5e18 3d27 eefe 811a 151d
00000030: 376d 55e0 0438 f64c 2d4c cda9 cfd1 5300
-55 27 -40 -57 -59 -43 -39 -27
-47 32 1 21 89 8 -30 -33
-79 -88 -73 -17 23 -13 25 -50
-42 -37 28 127 -45 10 -24 21
102 -8 25 89 72 28 94 24
61 39 -18 -2 -127 26 21 29
55 109 85 -32 4 56 -10 76
45 76 -51 -87 -49 -47 83 0

tfl.pseudo_qconst3 i1 [32, 1, 12800, 1]
00000000: d52b 0ff7 050b e2f2 dc12 f2ff ec03 01f7
00000010: 040a caf8 0d23 15ee 0cfa f12c f6f9 08dc
00000020: d919 e5f7 f7d2 e0d3 d00c 06f9 f8ee f4da
00000030: f2f7 cd01 f0fc 17ec fbef fe00 f2e7 fbe4
00000040: e2e7 e8fd 02d1 e7d0 fc05 dcfa e3ff ed0d
00000050: f00e d012 ed04 06ed f209 eeec e4e5 fdc0
00000060: eaf8 fffb e9cb e5dc 1108 eaeb e9d7 f7f8
00000070: f2c7 d319 f8cd e8e6 250e 05f3 e700 09cc
00000080: f730 2118 efd8 dfd8 120d ee09 e41d 0801
00000090: 11db f4e8 3723 d2ea ecf7 1f13 ede9 24d9
000000a0: e4f3 fffc e7b4 e0df fc17 1b13 eb02 0904
000000b0: 28f0 f8db d901 e8eb 0df1 02f8 d011 26d0
000000c0: 04f1 ecf2 f0c8 eaf0 dc1e f80b dddc f8e2
000000d0: 10df c5df f2c0 c8fa 10ed 11f1 d6fd 02fb
000000e0: fdfd 1e12 ffd0 d7df 082b 03f0 db1e 01e9
000000f0: f9e0 dada e0fd ecf7 11e0 0104 cee7 f6ff
-43 43 15 -9 5 11 -30 -14
-36 18 -14 -1 -20 3 1 -9
4 10 -54 -8 13 35 21 -18
12 -6 -15 44 -10 -7 8 -36
-39 25 -27 -9 -9 -46 -32 -45
-48 12 6 -7 -8 -18 -12 -38
-14 -9 -51 1 -16 -4 23 -20
-5 -17 -2 0 -14 -25 -5 -28
-30 -25 -24 -3 2 -47 -25 -48
-4 5 -36 -6 -29 -1 -19 13
-16 14 -48 18 -19 4 6 -19
-14 9 -18 -20 -28 -27 -3 -64
-22 -8 -1 -5 -23 -53 -27 -36
17 8 -22 -21 -23 -41 -9 -8
-14 -57 -45 25 -8 -51 -24 -26
37 14 5 -13 -25 0 9 -52
-9 48 33 24 -17 -40 -33 -40
18 13 -18 9 -28 29 8 1
17 -37 -12 -24 55 35 -46 -22
-20 -9 31 19 -19 -23 36 -39
-28 -13 -1 -4 -25 -76 -32 -33
-4 23 27 19 -21 2 9 4
40 -16 -8 -37 -39 1 -24 -21
13 -15 2 -8 -48 17 38 -48
4 -15 -20 -14 -16 -56 -22 -16
-36 30 -8 11 -35 -36 -8 -30
16 -33 -59 -33 -14 -64 -56 -6
16 -19 17 -15 -42 -3 2 -5
-3 -3 30 18 -1 -48 -41 -33
8 43 3 -16 -37 30 1 -23
-7 -32 -38 -38 -32 -3 -20 -9
17 -32 1 4 -50 -25 -10 -1

tfl.pseudo_qconst5 i1 [32, 3, 3, 16]
00000000: ed16 9a33 e00e 0b1e 10cf 2c91 c70e 2a39
00000010: c7d7 d2f9 d703 4301 e8b6 369b 13d3 0c5d
00000020: 24fb c014 f409 e619 fb9c 2ea8 e7d0 d91d
00000030: 31c9 dbf4 acc6 12d6 57c0 2207 adf5 e0a1
00000040: ff1f 020f 0a9d c1e9 46e4 29fd e1d3 20be
00000050: 18e8 44f8 23c6 d829 27c0 1c1c 9d21 13e7
00000060: 18db efdb d6ca bd24 1ff0 e618 bb0e b624
00000070: dabf 1152 bd27 dfcb 6e12 d2dc c33d efe6
00000080: 1081 2d44 ec2b bed7 731b fb37 d04e e50c
00000090: 37d7 d2eb bae0 25e5 ba25 2d0d 13f9 eff7
000000a0: 04fa c9eb f1e0 100e cd01 200f dfe6 f417
000000b0: d1ca 0e18 f51a f02b dfc9 37d0 f905 002d
000000c0: fdd4 e127 df20 00ea b8eb 0105 0b30 96f0
000000d0: 03bd fc11 27fe e8ef 8e08 1e03 0c18 e0f1
000000e0: dfd6 060b 22fc 0f14 c0f2 ec12 ffdb 0a07
000000f0: 07ca 0ee7 0610 2fec 81f5 d60f f0e8 d9de
-19 22 -102 51 -32 14 11 30
16 -49 44 -111 -57 14 42 57
-57 -41 -46 -7 -41 3 67 1
-24 -74 54 -101 19 -45 12 93
36 -5 -64 20 -12 9 -26 25
-5 -100 46 -88 -25 -48 -39 29
49 -55 -37 -12 -84 -58 18 -42
87 -64 34 7 -83 -11 -32 -95
-1 31 2 15 10 -99 -63 -23
70 -28 41 -3 -31 -45 32 -66
24 -24 68 -8 35 -58 -40 41
39 -64 28 28 -99 33 19 -25
24 -37 -17 -37 -42 -54 -67 36
31 -16 -26 24 -69 14 -74 36
-38 -65 17 82 -67 39 -33 -53
110 18 -46 -36 -61 61 -17 -26
16 -127 45 68 -20 43 -66 -41
115 27 -5 55 -48 78 -27 12
55 -41 -46 -21 -70 -32 37 -27
-70 37 45 13 19 -7 -17 -9
4 -6 -55 -21 -15 -32 16 14
-51 1 32 15 -33 -26 -12 23
-47 -54 14 24 -11 26 -16 43
-33 -55 55 -48 -7 5 0 45
-3 -44 -31 39 -33 32 0 -22
-72 -21 1 5 11 48 -106 -16
3 -67 -4 17 39 -2 -24 -17
-114 8 30 3 12 24 -32 -15
-33 -42 6 11 34 -4 15 20
-64 -14 -20 18 -1 -37 10 7
7 -54 14 -25 6 16 47 -20
-127 -11 -42 15 -16 -24 -39 -34

tfl.pseudo_qconst7 i1 [16, 3, 3, 8]
00000000: 1c11 0fa7 371f d934 e90b d8ac 1edb e1c3
00000010: de17 f8b3 42c4 daf6 6001 2712 2328 3043
00000020: 07c5 ee97 6734 08e1 d8eb 1497 7fee b8b1
00000030: 0137 fc35 3754 1444 59c9 fcf1 5613 3dde
00000040: 3b29 0e17 6efb 25d1 1c12 4293 133b cc20
00000050: 2854 4cad f8f8 923d d316 26a4 01e8 0d33
00000060: 37f8 03c0 cee5 df1d e5e9 c8a5 c0b6 95cf
00000070: 9f35 20b8 f4a8 94b7 580a f395 f9ce 14f8
00000080: d9f4 1c8e 1c99 d4ab b10a 1881 23a9 cbc7
00000090: eefb e6a5 81cf f3fd 1bdc e9b4 83c4 ddf5
000000a0: bc04 019f aaee 2d2b ebe5 c8a3 cdc7 e4c9
000000b0: eadf e997 9c07 f7f6 cf07 ecbb fbfd 21fa
000000c0: c5e1 19a9 eed4 040d bbde ffcf e4cc 380c
000000d0: 0cdc 00b1 cef9 3a2d 4e88 ee94 bdbb fdae
000000e0: 7544 9891 b8d9 e8cd f063 e4f2 52c6 1bea
000000f0: d168 d48d d40d 071e fd32 ccd6 f7e9 4e2e
28 17 15 -89 55 31 -39 52
-23 11 -40 -84 30 -37 -31 -61
-34 23 -8 -77 66 -60 -38 -10
96 1 39 18 35 40 48 67
7 -59 -18 -105 103 52 8 -31
-40 -21 20 -105 127 -18 -72 -79
1 55 -4 53 55 84 20 68
89 -55 -4 -15 86 19 61 -34
59 41 14 23 110 -5 37 -47
28 18 66 -109 19 59 -52 32
40 84 76 -83 -8 -8 -110 61
-45 22 38 -92 1 -24 13 51
55 -8 3 -64 -50 -27 -33 29
-27 -23 -56 -91 -64 -74 -107 -49
-97 53 32 -72 -12 -88 -108 -73
88 10 -13 -107 -7 -50 20 -8
-39 -12 28 -114 28 -103 -44 -85
-79 10 24 -127 35 -87 -53 -57
-18 -5 -26 -91 -127 -49 -13 -3
27 -36 -23 -76 -125 -60 -35 -11
-68 4 1 -97 -86 -18 45 43
-21 -27 -56 -93 -51 -57 -28 -55
-22 -33 -23 -105 -100 7 -9 -10
-49 7 -20 -69 -5 -3 33 -6
-59 -31 25 -87 -18 -44 4 13
-69 -34 -1 -49 -28 -52 56 12
12 -36 0 -79 -50 -7 58 45
78 -120 -18 -108 -67 -69 -3 -82
117 68 -104 -111 -72 -39 -24 -51
-16 99 -28 -14 82 -58 27 -22
-47 104 -44 -115 -44 13 7 30
-3 50 -52 -42 -9 -23 78 46

tfl.pseudo_qconst9 i1 [8, 3, 3, 3]
00000000: 4162 bada dcd0 1332 8152 2b56 9af4 e68e
00000010: e813 0269 4e10 45c1 d004 b2e2 efd9 c55d
00000020: 34fc 7f7d 6842 40c9 1bba ea12 da08 e4b6
00000030: 9bb9 ea14 e5ab 5bfd 9a67 afed 5fd9 c4ed
00000040: 38db c943 b494 fa1f 3ea5 1b3f ccf8 8144
00000050: 48cb 47f0 d241 ecf4 f3a8 b169 ded8 2bff
00000060: 323e b3d6 f31b d608 0947 3381 6416 9960
00000070: ffbf dacd 52e3 c926 1df1 cde1 1edb e2b5
00000080: 76bf b07f e615 2057 50bc 1d7e 97c0 6023
00000090: dc13 9311 690a bddf bd10 f50b 815a 4ca4
000000a0: f427 eb12 a5fc 2381 4edc e027 a625 0cc3
000000b0: c24e 15d2 7842 7042 3a26 7708 cae5 667f
000000c0: e570 6931 285d a72c fe21 74ef 2dcd fdae
000000d0: 5970 180e 26e1 2359
65 98 -70 -38 -36 -48 19 50
-127 82 43 86 -102 -12 -26 -114
-24 19 2 105 78 16 69 -63
-48 4 -78 -30 -17 -39 -59 93
52 -4 127 125 104 66 64 -55
27 -70 -22 18 -38 8 -28 -74
-101 -71 -22 20 -27 -85 91 -3
-102 103 -81 -19 95 -39 -60 -19
56 -37 -55 67 -76 -108 -6 31
62 -91 27 63 -52 -8 -127 68
72 -53 71 -16 -46 65 -20 -12
-13 -88 -79 105 -34 -40 43 -1
50 62 -77 -42 -13 27 -42 8
9 71 51 -127 100 22 -103 96
-1 -65 -38 -51 82 -29 -55 38
29 -15 -51 -31 30 -37 -30 -75
118 -65 -80 127 -26 21 32 87
80 -68 29 126 -105 -64 96 35
-36 19 -109 17 105 10 -67 -33
-67 16 -11 11 -127 90 76 -92
-12 39 -21 18 -91 -4 35 -127
78 -36 -32 39 -90 37 12 -61
-62 78 21 -46 120 66 112 66
58 38 119 8 -54 -27 102 127
-27 112 105 49 40 93 -89 44
-2 33 116 -17 45 -51 -3 -82
89 112 24 14 38 -31 35 89
