tflite_models/tflite_models_1607/CustomCNN_quant_int8.tflite (tflite, 426000 bytes, 5 tensors)

tfl.pseudo_qconst1 i1 [2, 1, 32, 1]
00000000: df14 1ffd 15d2 097f 0912 e2da 12be abf3
00000010: bc22 f220 0cd8 1fe7 1fd3 d5fb f121 4602
00000020: d4e0 e43c c74c f89b dfe5 171c f82d 1c34
00000030: 49d4 04d8 127b 2ed9 17fa 5a38 56ff 8128
-33 20 31 -3 21 -46 9 127
9 18 -30 -38 18 -66 -85 -13
-68 34 -14 32 12 -40 31 -25
31 -45 -43 -5 -15 33 70 2
-44 -32 -28 60 -57 76 -8 -101
-33 -27 23 28 -8 45 28 52
73 -44 4 -40 18 123 46 -39
23 -6 90 56 86 -1 -127 40

tfl.pseudo_qconst3 i1 [32, 1, 12800, 1]
00000000: 14e6 cf24 d316 dbda fa0f eca7 d7bf b1f7
00000010: e32d fbd2 cab9 d6cf e9cd deb3 13f8 f7e2
00000020: febd 1a16 c8e4 e9d3 c31c debd bc4b b3c8
00000030: ec00 32c1 ffc0 d7c1 fdba f6b4 03ee 05cc
00000040: 08c9 03f7 c3e3 decf 21e6 cbc4 b097 cfd5
00000050: d3dc 02cf 3de8 adc1 05bd eec5 f101 f3e9
00000060: 26d1 0014 ea06 b7c5 2ff0 eaf8 edf6 e9f7
00000070: c0e5 f1c1 32e4 baae ecc5 d0ce 101d 12f8
00000080: 24ad f606 f000 d9ea 1b14 cf13 130b cbdd
00000090: f029 25be 1ab9 b62e ffd2 eada eb09 1de4
000000a0: 31f3 1bf4 d812 ced6 0d09 bd12 2adb e6ea
000000b0: db2d fecf 27e9 d7e6 cfba f8c6 f2f9 06ec
000000c0: 1cd1 faef ea29 bcda 1ff8 e22e f0c8 d4fd
000000d0: b9f2 eed6 40d2 c1d0 ede8 01b8 0402 fdca
000000e0: 19b8 fd0b edf4 d2c9 2626 dcbe fef4 b5cd
000000f0: bd19 ebda 1fcf cdf1 1ec1 ceb7 f6ed eaee
20 -26 -49 36 -45 22 -37 -38
-6 15 -20 -89 -41 -65 -79 -9
-29 45 -5 -46 -54 -71 -42 -49
-23 -51 -34 -77 19 -8 -9 -30
-2 -67 26 22 -56 -28 -23 -45
-61 28 -34 -67 -68 75 -77 -56
-20 0 50 -63 -1 -64 -41 -63
-3 -70 -10 -76 3 -18 5 -52
8 -55 3 -9 -61 -29 -34 -49
33 -26 -53 -60 -80 -105 -49 -43
-45 -36 2 -49 61 -24 -83 -63
5 -67 -18 -59 -15 1 -13 -23
38 -47 0 20 -22 6 -73 -59
47 -16 -22 -8 -19 -10 -23 -9
-64 -27 -15 -63 50 -28 -70 -82
-20 -59 -48 -50 16 29 18 -8
36 -83 -10 6 -16 0 -39 -22
27 20 -49 19 19 11 -53 -35
-16 41 37 -66 26 -71 -74 46
-1 -46 -22 -38 -21 9 29 -28
49 -13 27 -12 -40 18 -50 -42
13 9 -67 18 42 -37 -26 -22
-37 45 -2 -49 39 -23 -41 -26
-49 -70 -8 -58 -14 -7 6 -20
28 -47 -6 -17 -22 41 -68 -38
31 -8 -30 46 -16 -56 -44 -3
-71 -14 -18 -42 64 -46 -63 -48
-19 -24 1 -72 4 2 -3 -54
25 -72 -3 11 -19 -12 -46 -55
38 38 -36 -66 -2 -12 -75 -51
-67 25 -21 -38 31 -49 -51 -15
30 -63 -50 -73 -10 -19 -22 -18

tfl.pseudo_qconst5 i1 [32, 3, 3, 16]
00000000: 05ca 95b5 00f3 221f 354f 1b1c 3091 19cc
00000010: d122 93e8 fd27 26d0 ca08 f0dc efc3 c1b0
00000020: c2eb 9c02 afe0 cbc7 cc95 abad a4ed 8798
00000030: 07cc c902 f62e 37e3 ec53 0345 09c4 1e3c
00000040: 4d4b 28cf 482d 27bd 2e3c 0807 f7e8 261b
00000050: dd08 3543 fdfb 1518 00b2 e6bc 0a03 ecbd
00000060: 2723 f27f fdfe 03dd ef2a a1d8 df2b 3e1c
00000070: 532a 04f0 5ae5 cf1a 1755 2e0a 1007 720b
00000080: cb2b b922 1e08 c92e d52b f2ea ca04 0989
00000090: 569c ee32 c837 8157 dace a109 c3ff 25d4
000000a0: 6fb6 2f43 0750 ff0f e754 75b8 1fe6 31ea
000000b0: e9f5 33a7 fbd0 9bf5 5c0b 0f29 0d9c f824
000000c0: 06a6 12cc cb14 debb d3ed a9f3 88b5 e021
000000d0: e9d9 cdee 05e8 f0bd 38d5 47fa 2e26 faee
000000e0: 2999 1bd6 02bf 1cb3 46ed fae8 e499 ee0d
000000f0: e030 32cd bbf7 69e3 501e 0d0c 2305 14cf
5 -54 -107 -75 0 -13 34 31
53 79 27 28 48 -111 25 -52
-47 34 -109 -24 -3 39 38 -48
-54 8 -16 -36 -17 -61 -63 -80
-62 -21 -100 2 -81 -32 -53 -57
-52 -107 -85 -83 -92 -19 -121 -104
7 -52 -55 2 -10 46 55 -29
-20 83 3 69 9 -60 30 60
77 75 40 -49 72 45 39 -67
46 60 8 7 -9 -24 38 27
-35 8 53 67 -3 -5 21 24
0 -78 -26 -68 10 3 -20 -67
39 35 -14 127 -3 -2 3 -35
-17 42 -95 -40 -33 43 62 28
83 42 4 -16 90 -27 -49 26
23 85 46 10 16 7 114 11
-53 43 -71 34 30 8 -55 46
-43 43 -14 -22 -54 4 9 -119
86 -100 -18 50 -56 55 -127 87
-38 -50 -95 9 -61 -1 37 -44
111 -74 47 67 7 80 -1 15
-25 84 117 -72 31 -26 49 -22
-23 -11 51 -89 -5 -48 -101 -11
92 11 15 41 13 -100 -8 36
6 -90 18 -52 -53 20 -34 -69
-45 -19 -87 -13 -120 -75 -32 33
-23 -39 -51 -18 5 -24 -16 -67
56 -43 71 -6 46 38 -6 -18
41 -103 27 -42 2 -65 28 -77
70 -19 -6 -24 -28 -103 -18 13
-32 48 50 -51 -69 -9 105 -29
80 30 13 12 35 5 20 -49

tfl.pseudo_qconst7 i1 [16, 3, 3, 8]
00000000: 282a 2360 d6e2 dcf0 23dc 5c28 374d 1ef6
00000010: f616 481a 1d16 5942 43f4 f1fd d1ff 10f2
00000020: 4be4 7d14 36fe f1fc 12f6 7f30 4441 0403
00000030: f8f3 d4e2 04f5 1602 04bc fcc3 f104 063c
00000040: cbf0 f02d efea fc16 c4db d5ff 3a02 59d4
00000050: c3e8 f304 96cd 29cb 9f03 07c4 95ea 0afe
00000060: c912 f5fb d5fe 11ff e613 fc33 fcf0 5334
00000070: eaeb d5fd 39f0 1af7 0c3c 44e3 3af7 1b19
00000080: 4732 5e09 35f3 46fd d71b 7f1d 2a31 6c0c
00000090: abf3 8b14 0ea8 0c4f cb1d c634 1504 38f9
000000a0: b140 a3bb efee 7feb 2916 1e44 2bb3 13b5
000000b0: 020b 4201 f7da e3e1 5205 e63e 03fd 0e32
000000c0: 55cd 10d7 09d3 1de7 1dc9 2ebf 0fc8 0bad
000000d0: 13c0 febe 22d6 cecf e4f6 f0ce f5f2 e7ca
000000e0: e107 c2da d5fa 46fc 2613 d6e8 dfdb fd5c
000000f0: 93da 04e6 1afe 42a0 fe17 d1f7 ec08 5cce
40 42 35 96 -42 -30 -36 -16
35 -36 92 40 55 77 30 -10
-10 22 72 26 29 22 89 66
67 -12 -15 -3 -47 -1 16 -14
75 -28 125 20 54 -2 -15 -4
18 -10 127 48 68 65 4 3
-8 -13 -44 -30 4 -11 22 2
4 -68 -4 -61 -15 4 6 60
-53 -16 -16 45 -17 -22 -4 22
-60 -37 -43 -1 58 2 89 -44
-61 -24 -13 4 -106 -51 41 -53
-97 3 7 -60 -107 -22 10 -2
-55 18 -11 -5 -43 -2 17 -1
-26 19 -4 51 -4 -16 83 52
-22 -21 -43 -3 57 -16 26 -9
12 60 68 -29 58 -9 27 25
71 50 94 9 53 -13 70 -3
-41 27 127 29 42 49 108 12
-85 -13 -117 20 14 -88 12 79
-53 29 -58 52 21 4 56 -7
-79 64 -93 -69 -17 -18 127 -21
41 22 30 68 43 -77 19 -75
2 11 66 1 -9 -38 -29 -31
82 5 -26 62 3 -3 14 50
85 -51 16 -41 9 -45 29 -25
29 -55 46 -65 15 -56 11 -83
19 -64 -2 -66 34 -42 -50 -49
-28 -10 -16 -50 -11 -14 -25 -54
-31 7 -62 -38 -43 -6 70 -4
38 19 -42 -24 -33 -37 -3 92
-109 -38 4 -26 26 -2 66 -96
-2 23 -47 -9 -20 8 92 -50

tfl.pseudo_qconst9 i1 [8, 3, 3, 3]
00000000: 4930 4a3f fbb6 0d43 8159 59fe a9cc effa
00000010: f3ab e120 27bf 0b40 9b10 dff6 355e 0bb9
00000020: 2bd6 d02b 492b 090c acfa 5881 a56a 40e8
00000030: 1ea6 c737 0f18 64f0 cb7f ddce 60c3 25c0
00000040: b5f3 d41f d022 9adf e605 4aa9 043a d639
00000050: 341b 1702 e0f6 f95b 07ac dfc6 3239 19fe
00000060: 5d37 8103 d337 0acc f64c e5e3 28f9 f808
00000070: 24ec dc14 0ac5 a781 dea5 fc50 ae52 1465
00000080: 0beb 6a4f fccc a681 b6c1 9afb dbd1 bd15
00000090: b345 c0a0 fa55 d913 586e 5f1e 7600 0bb4
000000a0: e240 e3db 2bba e1ee 2a25 08c6 bff2 3223
000000b0: eae5 e418 7f49 9ca8 b927 b337 22ee 26c6
000000c0: 39b8 4d50 036e 6630 ecbf a247 d081 10f3
000000d0: 05c3 e492 f423 935e
73 48 74 63 -5 -74 13 67
-127 89 89 -2 -87 -52 -17 -6
-13 -85 -31 32 39 -65 11 64
-101 16 -33 -10 53 94 11 -71
43 -42 -48 43 73 43 9 12
-84 -6 88 -127 -91 106 64 -24
30 -90 -57 55 15 24 100 -16
-53 127 -35 -50 96 -61 37 -64
-75 -13 -44 31 -48 34 -102 -33
-26 5 74 -87 4 58 -42 57
52 27 23 2 -32 -10 -7 91
7 -84 -33 -58 50 57 25 -2
93 55 -127 3 -45 55 10 -52
-10 76 -27 -29 40 -7 -8 8
36 -20 -36 20 10 -59 -89 -127
-34 -91 -4 80 -82 82 20 101
11 -21 106 79 -4 -52 -90 -127
-74 -63 -102 -5 -37 -47 -67 21
-77 69 -64 -96 -6 85 -39 19
88 110 95 30 118 0 11 -76
-30 64 -29 -37 43 -70 -31 -18
42 37 8 -58 -65 -14 50 35
-22 -27 -28 24 127 73 -100 -88
-71 39 -77 55 34 -18 38 -58
57 -72 77 80 3 110 102 48
-20 -65 -94 71 -48 -127 16 -13
5 -61 -28 -110 -12 35 -109 94
